…
                         : Dataset[dataset] : Class index : 1  name : Background
2022-05-03 09:46:46.675352: I tensorflow/core/platform/cpu_feature_guard.cc:151] This TensorFlow binary is optimized with oneAPI Deep Neural Network Library (oneDNN) to use the following CPU instructions in performance-critical operations:  AVX2 FMA
To enable them in other operations, rebuild TensorFlow with the appropriate compiler flags.
Model: "sequential"
_________________________________________________________________
 Layer (type)                Output Shape              Param #
=================================================================
 dense (Dense)               (None, 64)                384

 dense_1 (Dense)             (None, 12)                780

 dense_2 (Dense)             (None, 12)                156

 dense_3 (Dense)             (None, 12)                156

 dense_4 (Dense)             (None, 12)                156

 dense_5 (Dense)             (None, 2)                 26

=================================================================
Total params: 1,658
Trainable params: 1,658
Non-trainable params: 0
_________________________________________________________________
Factory                  : Booking method: Fisher
                         :
Fisher                   : [dataset] : Create Transformation "D" with events from all classes.
                         :
…
